musicista/data.pth (torch, 10858 bytes, 6 tensors)

l1.weight f4 [8, 156]
0	0xbe3ac35c	-0.18238586
1	0x3f49980c	0.7874763
2	0x3f372be4	0.71551347
3	0x3eee2dfc	0.46519458
4	0x3eb8ef83	0.36120233
5	0xbf2af8fe	-0.6678618
6	0xbe2e228a	-0.17005363
7	0xbec2f751	-0.38079312
8	0xbece2df1	-0.40269426
9	0xbeb5bd11	-0.3549581
10	0xbba427f1	-0.005009644
11	0xbf0e5dfc	-0.5561216
12	0xbf05736b	-0.5212924
13	0x3f0adcca	0.5424315
14	0xbf41bc04	-0.75677514
15	0xbf41d87e	-0.75720966
16	0xbe2760c5	-0.16345508
17	0x3f09e0d4	0.53858685
18	0x3d273507	0.040822055
19	0xbec0ea57	-0.37678787
20	0x3f0c31c1	0.5476342
21	0xbf5856ab	-0.84507245
22	0xbe8a54c9	-0.2701781
23	0xbed9977e	-0.42498392
24	0x3ea67c47	0.3251669
25	0x3f86f093	1.0542167
26	0x3ef1d4dc	0.4723271
27	0xbdaff707	-0.085920386
28	0x3f1e20cf	0.6176881
29	0x3b6e8f1e	0.0036401222
30	0x3e906e34	0.28209078
31	0x3f444250	0.76663685
32	0x3f434760	0.76280785
33	0x3f1c516c	0.6106174
34	0xbf87823f	-1.0586623
35	0x3f48dcfd	0.784622
36	0x3ed67bb4	0.41891253
37	0xbb228cf2	-0.0024803248
38	0xbf3ecefd	-0.7453459
39	0xbd910091	-0.07080186
40	0x3f31f96f	0.6952123
41	0xbe097e73	-0.13427143
42	0x3e68667a	0.22695342
43	0xbede4d9e	-0.43418592
44	0x3f3568e4	0.70863175
45	0xbdcf2c45	-0.101158656
46	0x3dc29948	0.09501892
47	0x3f3f3b1d	0.74699575
48	0xbdac43ad	-0.08411346
49	0x3a50242d	0.0007939961
50	0x3daa77ac	0.08323607
51	0x3e64b04a	0.22332874
52	0x3e4633cb	0.19355695
53	0xbf9fdcd2	-1.2489264
54	0xbf2ead3d	-0.6823309
55	0xbe1dd620	-0.15413713
56	0xbde2ebd8	-0.1108014
57	0xbeaaa33a	-0.33327657
58	0x3ef3b5a9	0.47599533
59	0x3f55f162	0.83571446
60	0x3f89ee72	1.0775893
61	0x3f28d229	0.6594568
62	0xbec3f6b0	-0.38274145
63	0x3e2c34e1	0.16817047
64	0x3e028d6a	0.12749258
65	0x3f192d30	0.59834576
66	0xbe0cc019	-0.13745154
67	0x3f0c9486	0.5491413
68	0x3f79b08c	0.97535014
69	0x3e5ef10d	0.21771641
70	0xbf1588bf	-0.5841178
71	0x3e096059	0.1341566
72	0xbec0432b	-0.37551245
73	0x3f4f9779	0.81090504
74	0x3f62e46c	0.88629794
75	0xbe4ca9f4	-0.19986707
76	0xbe27e8ef	-0.16397451
77	0xbec1bc3d	-0.37838927
78	0x3eb99df2	0.36253315
79	0x3ecebcd7	0.40378448
80	0x3f039d4a	0.5141188
81	0xbf7c4985	-0.9854968
82	0x3eb6bc6e	0.35690635
83	0x3f5f3862	0.8719541
84	0xbe243b4e	-0.16038248
85	0x3f13611b	0.57570046
86	0x3f603824	0.87585664
87	0xbe8ce66c	-0.27519548
88	0x3ea5ce6d	0.32384053
89	0x3f56b7ce	0.83874214
90	0x3f5991ce	0.84988105
91	0x3f5b819f	0.8574466
92	0x3f5c9edd	0.86179906
93	0x3f5a8501	0.853592
94	0x3f2a635f	0.6655788
95	0x3e82aea6	0.2552387
96	0x3f58468d	0.8448265
97	0x3d3f0cb1	0.046642963
98	0x3e429f11	0.19005992
99	0x3fcf1b65	1.6180235
100	0xbed54fba	-0.4166239
101	0x3e2f0252	0.17090729
102	0xbe32bc80	-0.1745472
103	0x3e99089c	0.2988938
104	0x3f118803	0.5684816
105	0xbde49a7c	-0.11162278
106	0x3e4e9ef8	0.2017783
107	0xbd3bf57f	-0.04588842
108	0x3f5a30bd	0.8523062
109	0xbea0c1e3	-0.31397924
110	0x3fd2d792	1.6472037
111	0xbf10e41d	-0.56598073
112	0xbece69a6	-0.40314978
113	0xbf0fafc4	-0.5612757
114	0xbf066486	-0.52497137
115	0x3e14ad3b	0.14519207
116	0x3d7c2f1f	0.061568376
117	0xbfb401d8	-1.4063063
118	0xbe9c6b61	-0.30550674
119	0xbebae579	-0.365032
120	0xbef78971	-0.48347047
121	0xbf41744a	-0.7556807
122	0xbeb05ef5	-0.34447446
123	0xbf29f90d	-0.66395646
124	0xbef0a54b	-0.4700111
125	0xbed6e07b	-0.4196814
126	0x3ee3f57c	0.44523227
127	0xbf429708	-0.76011705
128	0x3f475986	0.77870977
129	0x3e7fd47d	0.24983402
130	0xbe66242a	-0.22474733
131	0x3f4a7084	0.79077935
132	0x3e546393	0.2074111
133	0xbe1430c8	-0.14471734
134	0x3f663088	0.899178
135	0xbf40bd9d	-0.75289327
136	0x3ee3d3ad	0.44497433
137	0x3e0a051b	0.1347851
138	0xbcd638d9	-0.026150154
139	0x3e9c1c03	0.3049012
140	0x3f5c8f9b	0.86156625
141	0x3eab48d8	0.33454013
142	0xbd9efa94	-0.07762638
143	0x3e59b5e3	0.2126079
144	0xbd24aaa6	-0.040201806
145	0xbe9ed104	-0.3101884
146	0x3ed0d261	0.40785506
147	0x3f11c884	0.5694659
148	0x3ebe9011	0.3721929
149	0x3eb8e310	0.36110735
150	0x3efeb20c	0.49745214
151	0xbe80368f	-0.25041625
152	0x3f5e09c0	0.8673363
153	0xbda57308	-0.08078581
154	0x3e29a83d	0.16568084
155	0xbf47b3ff	-0.7800903
156	0x3e24668e	0.16054747
157	0xbe8cbdf7	-0.27488682
158	0x3d52f586	0.05150368
159	0x3f37ca97	0.717935
160	0x3ea82cea	0.32846767
161	0xbe45e61c	-0.19326061
162	0x3eea95ab	0.45817313
163	0xbeac42bf	-0.33644673
164	0xbeb03f83	-0.34423456
165	0xbea28459	-0.31741598
166	0x3f98fc3e	1.1951978
167	0x3ebec9ef	0.37263438
168	0x3d63da23	0.055627953
169	0x3e6a6236	0.22889027
170	0x3f5c21a5	0.8598884
171	0x3f5b898a	0.8575674
172	0xbdf1eb21	-0.118124254
173	0xbdf33ba8	-0.11876613
174	0x3d990358	0.07471341
175	0xbea61aad	-0.32442227
176	0x3f2be57f	0.6714706
177	0x3e81d622	0.25358683
178	0xbee1b880	-0.44086075
179	0x3efcfb46	0.49410456
180	0x3f623e5e	0.88376415
181	0x3f9f271f	1.2433814
182	0x3f42aeed	0.76048166
183	0x3f37fb55	0.7186788
184	0x3f0a6724	0.5406363
185	0x3fb97030	1.4487362
186	0x3ed92526	0.42411155
187	0x3ec85f77	0.39135334
188	0x3ed36055	0.41284433
189	0x3fd87edf	1.6913718
190	0x3f9142fa	1.1348565
191	0x3f1e2f73	0.6179115
192	0x3d12bb44	0.03582312
193	0xbe6a59e2	-0.2288585
194	0xbdee3e1f	-0.116329424
195	0x3e5ca688	0.21547902
196	0x3f800fde	1.0004842
197	0xbf3ae012	-0.72998154
198	0x3e8fdc7d	0.28097907
199	0xbf9221ea	-1.14166
200	0x3f09db3d	0.53850156
201	0x3e6ed7fb	0.23324578
202	0xbf1f21fb	-0.62161225
203	0xbf35d8e0	-0.7103405
204	0x3fa8a006	1.3173835
205	0xbd9d8900	-0.07692146
206	0x3ee2016e	0.44141716
207	0x3efbf3aa	0.49209338
208	0xbe35aaca	-0.17740932
209	0x3f426ad4	0.75944257
210	0x3e2717e7	0.16317712
211	0x3f60470a	0.87608397
212	0x3f81af47	1.0131615
213	0x3eff9d45	0.49924675
214	0x3eead37c	0.45864475
215	0x3fe4ea90	1.7884083
216	0x3ecc999e	0.3996095
217	0xbecac22c	-0.39601266
218	0xbc5cbf41	-0.013473333
219	0x3f877809	1.0583507
220	0x3f7b0a21	0.9806233
221	0x3e7d1b5b	0.24717467
222	0x3e583f0d	0.21117802
223	0xbec332b7	-0.3812463
224	0xbe061202	-0.13092807
225	0x3f622f49	0.883534
226	0x3f190f6f	0.59789175
227	0x3ee55491	0.44791082
228	0x3e8e8311	0.2783437
229	0x3e0b9200	0.13629913
230	0x3e9828ae	0.29718536
231	0x3e58b911	0.21164347
232	0x3da42ecf	0.080167405
233	0x3cb831ca	0.022484679
234	0x3f0b9f37	0.5453982
235	0x3f0d66b4	0.5523484
236	0xbe8fe85a	-0.28106958
237	0xbec46b03	-0.38362893
238	0x3f029903	0.5101473
239	0xbf294b5d	-0.6613062
240	0xbf41ae87	-0.7565693
241	0xbcbb6487	-0.022875084
242	0xbf291ac2	-0.66056454
243	0x3fccc8f2	1.5998824
244	0x3eaea6c9	0.34111622
245	0xbf290d3e	-0.6603583
246	0xbf296547	-0.6617016
247	0xbf294cfb	-0.6613309
248	0xbf292cfa	-0.66084254
249	0xbf296726	-0.6617302
250	0xbec5fe62	-0.3867064
251	0x3f14eef9	0.58177143
252	0xbf292e2e	-0.6608609
253	0x3f067a73	0.5253059
254	0x3e06555b	0.13118498
255	0xbf7e1c86	-0.99262273

l1.bias f4 [8]
0	0x3f41479d	0.754999
1	0x3f28fb75	0.6600869
2	0x3f9aa4d0	1.2081547
3	0x3f4ec063	0.8076231
4	0x3ea663a5	0.32497898
5	0x3f13ae19	0.57687527
6	0x3e942412	0.2893377
7	0x3f7991a3	0.9748785

l2.weight f4 [8, 8]
0	0x3d02d2b3	0.03193922
1	0xbe743355	-0.23847707
2	0x3e7d14d8	0.24714983
3	0x3f42fd4c	0.7616775
4	0xbff96228	-1.948308
5	0xbf738158	-0.9511924
6	0xbdb2c8b0	-0.08729684
7	0xbc9ad465	-0.018900106
8	0xbfb4f9ac	-1.4138694
9	0xbf52ef8f	-0.8239679
10	0x3e034a02	0.128212
11	0x3fbb9dc0	1.4657516
12	0x4009ea30	2.1549187
13	0x3fa5a47b	1.294082
14	0x3eca6313	0.39528713
15	0x3f5ee11d	0.87062246
16	0x3f9008a3	1.1252636
17	0xbfa8039c	-1.3126101
18	0x3f676126	0.9038261
19	0x3e3f3657	0.18673073
20	0xbd9f63f2	-0.07782735
21	0xbf03b91e	-0.5145434
22	0x3fa208aa	1.2658894
23	0x3eea3f7f	0.4575157
24	0x3f594755	0.8487447
25	0x3fbb0d50	1.4613438
26	0xbf8f8a0b	-1.1214002
27	0xbf78a450	-0.9712572
28	0x3eecbd5b	0.46238217
29	0x3ff8711f	1.9409522
30	0x3fbe8bd2	1.488642
31	0x3f688355	0.90825397
32	0x3f5e5f1b	0.8686387
33	0xbeac7135	-0.3368012
34	0x3ea56cfe	0.32309717
35	0x3ecffaf3	0.40621147
36	0x3fbd6613	1.4796776
37	0xbf8e9611	-1.1139547
38	0x3f151f08	0.58250475
39	0x3fc04931	1.5022336
40	0xbfe14453	-1.7598976
41	0x3fd5240e	1.6651628
42	0x3fcee0fa	1.6162407
43	0xbe5e735f	-0.21723698
44	0x3e40c2af	0.18824266
45	0xbf044941	-0.51674277
46	0x3ffed7f3	1.9909652
47	0xbf348916	-0.70521677
48	0x3fc6c44f	1.5528659
49	0xbc5eb064	-0.0135918595
50	0x3fd0f866	1.6325805
51	0x3fcbb644	1.5914998
52	0xbf98c219	-1.1934234
53	0xbe2387ba	-0.15969744
54	0xbf59c5ef	-0.8506765
55	0x3f8bdaa6	1.0926101
56	0xbc94253e	-0.018084165
57	0x3f6d3d21	0.926714
58	0x3ea24fa9	0.317014
59	0x3f9ffe8b	1.2499555
60	0x3eaa852e	0.33304733
61	0x3eb6c1c3	0.35694703
62	0xbf4a2c69	-0.78974015
63	0xbe93c9f5	-0.28865018

l2.bias f4 [8]
0	0xbf701859	-0.9378715
1	0x3dcca700	0.0999279
2	0x3dd8da12	0.105884686
3	0x3e7a42c6	0.24439535
4	0x3dc97122	0.098360315
5	0x3f0e37d8	0.5555396
6	0x3f92c9fd	1.1467892
7	0x3d24d790	0.04024464

l3.weight f4 [22, 8]
0	0xbf1f0f0a	-0.6213232
1	0xc01362f9	-2.3029158
2	0x3e9cc554	0.306193
3	0x3e9e0313	0.3086172
4	0xbe0495e6	-0.12947807
5	0x3f097d78	0.53707075
6	0xc020887d	-2.5083306
7	0xc0081606	-2.1263442
8	0x3f52ea0f	0.82388395
9	0xbedb9725	-0.42888752
10	0xbcc4e208	-0.024033561
11	0xbf932cea	-1.1498082
12	0x3e389fa6	0.18029651
13	0xbf8f31d0	-1.1187077
14	0x3f2ce126	0.6753105
15	0x3f60db46	0.87834585
16	0xbe674448	-0.22584641
17	0xbf84698e	-1.0344713
18	0x3f031bf6	0.5121454
19	0xbf57c325	-0.8428214
20	0x3f00abf3	0.50262374
21	0xbea2cf87	-0.31798956
22	0x3e4e967d	0.20174594
23	0xbf8bf3dc	-1.0933795
24	0xbf11a084	-0.5688555
25	0xbe85d310	-0.2613759
26	0xbfa85b7f	-1.3152922
27	0x3eb46a7a	0.35237485
28	0xbfebce35	-1.8422304
29	0x3f120840	0.5704384
30	0xbf8bcfd9	-1.0922805
31	0x3db68520	0.0891211
32	0xc0233568	-2.5501347
33	0xbf1087c8	-0.56457186
34	0xbff1258d	-1.8839585
35	0xbe435d89	-0.1907865
36	0xbec10897	-0.37701866
37	0x3f070cd8	0.52753973
38	0xbef23aac	-0.47310388
39	0x3ecc4f7e	0.39904398
40	0xc03d1596	-2.9544425
41	0xc04fb83b	-3.2456195
42	0xc00847df	-2.1293867
43	0x3c497d2b	0.012297909
44	0xc060032a	-3.500193
45	0x3f0324e2	0.51228154
46	0x3f0d02e2	0.55082524
47	0x3f3fbf44	0.74901223
48	0xc02595da	-2.5872712
49	0x3f8ec151	1.1152745
50	0xbf2933dc	-0.66094756
51	0xc05b913c	-3.4307394
52	0x3ed598af	0.4171805
53	0xc060b09c	-3.5107794
54	0x3e237bea	0.15965238
55	0x3f96bb5d	1.1775929
56	0xc079bf77	-3.902311
57	0xbf4ad43d	-0.792301
58	0xbe2cf32a	-0.16889635
59	0xbf7c4ee4	-0.9855788
60	0x3e604b2a	0.21903673
61	0x3fa8cabc	1.318687
62	0xbfab54fc	-1.338531
63	0xc00b40b9	-2.1758254
64	0xbf80cc0a	-1.0062268
65	0xbe6283aa	-0.22120538
66	0x3f22fd7f	0.63668054
67	0x3f0cfea4	0.5507605
68	0x3eaea588	0.34110665
69	0xc013e173	-2.3106353
70	0xc0051560	-2.0794296
71	0xc02dfbbf	-2.7184904
72	0x3f046e43	0.51730746
73	0xc071c2cb	-3.7775142
74	0x3d540f94	0.05177267
75	0xbf3c18d8	-0.7347541
76	0xbf1ce8b5	-0.6129258
77	0x3e994bb1	0.2994056
78	0x3e23f21d	0.16010328
79	0x3f273863	0.65320414
80	0xbf79617b	-0.9741437
81	0x3d0cf35e	0.03441178
82	0x3e41485b	0.18875258
83	0x3da028e0	0.07820296
84	0xbd8c8292	-0.06860842
85	0xc06c9485	-3.696565
86	0x3e7cabd3	0.2467492
87	0xbe1b317c	-0.15155596
88	0xbfd7b757	-1.6852826
89	0x3eb47994	0.35249007
90	0xc061b06a	-3.5263925
91	0xbe18ed86	-0.14934358
92	0xbf03dfad	-0.5151318
93	0xbfbbdb64	-1.4676328
94	0x3da4a064	0.080384046
95	0x3f21cc81	0.63202673
96	0xbfc21b7f	-1.5164641
97	0xc002ff2b	-2.0468242
98	0xbb628b6d	-0.0034567968
99	0x3e53a3f7	0.20668016
100	0x3f319974	0.69374776
101	0xc023dbf5	-2.5603
102	0xbbced2bf	-0.006311744
103	0xc0034525	-2.0510952
104	0xbe41b2b9	-0.18915834
105	0xbe2ef48c	-0.17085475
106	0x3ee08f87	0.43859503
107	0xbfc35736	-1.526099
108	0xbc271ecb	-0.010200213
109	0x3be5cbb0	0.007012807
110	0x3e26a1a2	0.16272596
111	0xbf1c9eb9	-0.6117969
112	0xbff3c224	-1.9043622
113	0xbd769bd7	-0.060207214
114	0xbfe7d761	-1.8112603
115	0xc047c331	-3.1212885
116	0xc00cf429	-2.2024024
117	0x3ea082b5	0.31349722
118	0x3f1de23c	0.6167333
119	0x3faa500e	1.3305681
120	0xbf177154	-0.591573
121	0x3eb2f08f	0.34949157
122	0xc01afccd	-2.4216797
123	0xbe85c911	-0.26129964
124	0xbe46574f	-0.19369243
125	0x3e860f4d	0.2618355
126	0xc04ceda0	-3.2020035
127	0x3ed69d0e	0.41916698
128	0xbf6c41f0	-0.9228811
129	0xc06226d5	-3.53362
130	0x3f6237a1	0.8836613
131	0xc079870e	-3.898868
132	0x3f1b2c1b	0.60614175
133	0xc033e4c3	-2.8108375
134	0x3fb24886	1.3928382
135	0xbe9b91ac	-0.30384576
136	0xbf6da0de	-0.9282359
137	0x3e946984	0.28986752
138	0xc0331be3	-2.798577
139	0x3f6fd9c0	0.93691635
140	0x3b622d7f	0.003451198
141	0xbef8d3c9	-0.4859908
142	0xbff6917b	-1.9263147
143	0xc00c2be9	-2.19018
144	0xc028a342	-2.6349645
145	0x3f78b441	0.97150046
146	0x3cf4ac6b	0.029867372
147	0xbf407111	-0.75172526
148	0x3e8f0027	0.27929804
149	0xbf27f7bb	-0.6561238
150	0xbf6b9467	-0.9202332
151	0xbfa2b595	-1.2711664
152	0xbf84b61a	-1.0368073
153	0x3f0da21f	0.553255
154	0x3e5e3e56	0.21703467
155	0xbdb96ee2	-0.09054352
156	0xbf99b7ed	-1.2009255
157	0x3e95d349	0.2926276
158	0xc059682c	-3.3969831
159	0xbfe19e15	-1.7626368
160	0xbeb6a696	-0.3567397
161	0xc0396db1	-2.89732
162	0xbfde5faa	-1.7372944
163	0x3fc50253	1.5391334
164	0xbfdb53ac	-1.713491
165	0x3d4e193b	0.05031703
166	0xbf858838	-1.0432196
167	0xbf6cf875	-0.92566615
168	0xbf65d623	-0.8977987
169	0x3f0e2af4	0.5553429
170	0xbfe1bb1c	-1.7635226
171	0xbdb5620d	-0.08856592
172	0x3ea2e167	0.31812593
173	0xc00545a9	-2.0823767
174	0xc0183159	-2.378012
175	0x3f18c349	0.5967298

l3.bias f4 [22]
0	0xbef70e46	-0.48253077
1	0x3e528f17	0.20562397
2	0xbef6e3e5	-0.48220745
3	0xbda8df27	-0.08245688
4	0x3e335734	0.17513734
5	0x3df48326	0.11939077
6	0x3ea65745	0.32488456
7	0xbe826ddf	-0.2547445
8	0xbe95b6f2	-0.2924114
9	0xbf22dd97	-0.6361937
10	0x3e1f88d6	0.15579543
11	0xbd73c0f6	-0.059510194
12	0xbe931899	-0.28729704
13	0xbed0210d	-0.40650216
14	0x3ee678ac	0.4501394
15	0x3d2a0185	0.041505355
16	0x3f3abbcb	0.729428
17	0x3a9da69f	0.0012027806
18	0xbf38c2de	-0.72172344
19	0x3e0125a1	0.1261201
20	0x3f041f04	0.51609826
21	0xbdddfd0c	-0.108392805
